pacman_model.pth (torch, 692993 bytes, 8 tensors)

net.0.weight f4 [512, 14]
0	0xbe59c109	-0.21265043
1	0x3c045274	0.008076299
2	0xbe635b9c	-0.22202915
3	0x3d796066	0.06088295
4	0x3de50b78	0.11183828
5	0x3e261796	0.16219935
6	0xbe90b889	-0.2826579
7	0x3eec6e3e	0.46177858
8	0x3e08c038	0.13354576
9	0xbe06f3c3	-0.13178925
10	0xbde20475	-0.11036006
11	0xbe77f0a3	-0.2421289
12	0xbe142246	-0.144662
13	0x3e66bf91	0.22534014
14	0x3d3c94a4	0.046040192
15	0x3c952e37	0.018210514
16	0x3d47cc0e	0.048778586
17	0xbde34679	-0.11097426
18	0xbe7831d5	-0.2423776
19	0xbd78cea5	-0.060743947
20	0xbdb92961	-0.090410955
21	0x3e8dae7a	0.27672178
22	0x3e1fd127	0.15607129
23	0xbe1fa9f0	-0.1559217
24	0x3df16842	0.11787464
25	0xbdd94e80	-0.10610676
26	0x3e2ec6d9	0.17068042
27	0xbbaf0212	-0.005340823
28	0xbe22c1bd	-0.15894218
29	0x3e5ed3ab	0.21760432
30	0xbdeb660c	-0.11494073
31	0x3c754892	0.014970915
32	0xbf26ebee	-0.6520375
33	0x3d76332c	0.060107395
34	0x3e75229b	0.23938982
35	0xbd2aa93e	-0.04166531
36	0x3e68bfb2	0.22729376
37	0x3d70b556	0.058766685
38	0x3e43ee33	0.19133835
39	0x3d0d9f70	0.03457588
40	0x3e6194e4	0.22029454
41	0xbe853759	-0.2601879
42	0x3d16ebad	0.03684585
43	0x3e0b7113	0.13617353
44	0x3e68555c	0.22688812
45	0xbb443881	-0.0029940906
46	0xbcfa6fea	-0.030570943
47	0xbe18855b	-0.14894621
48	0x3e8fb83b	0.28070244
49	0xbe956f1d	-0.29186335
50	0x3d9b0590	0.0756942
51	0x3cad0f8e	0.021125581
52	0x3dc55b22	0.09636523
53	0x3d70b212	0.05876357
54	0xbe30706f	-0.1723039
55	0xbdf699c3	-0.120410465
56	0x3e192970	0.14957213
57	0x3e6008e0	0.21878386
58	0x3eaafeb1	0.3339744
59	0xbdd77ff3	-0.10522451
60	0x3e40de3d	0.18834777
61	0x3d886c76	0.06661312
62	0x3b9ad0da	0.004724604
63	0x3e20dccb	0.15709226
64	0x3ce5f3e3	0.028070396
65	0xbde822ca	-0.113347605
66	0xbc97557c	-0.01847338
67	0xbe4de81a	-0.20108071
68	0xbd88f69f	-0.06687664
69	0xbe196639	-0.14980401
70	0xbd8e69ab	-0.06953748
71	0xbd2ef39f	-0.042712804
72	0xbe16341b	-0.14668314
73	0x3d859e5d	0.06524346
74	0x3e571b70	0.2100656
75	0xbe9f5e54	-0.31126654
76	0x3e3a64c0	0.18202496
77	0x3ec1e76a	0.37871867
78	0x3e4134c1	0.1886778
79	0x3e04adfe	0.12956998
80	0xbef14030	-0.47119284
81	0xbe08d555	-0.1336263
82	0x3df8c6fc	0.12147328
83	0xbe2a2464	-0.16615444
84	0x3e874607	0.26420614
85	0xbe3775fe	-0.17916104
86	0x3d112347	0.035434034
87	0xbe0f03e0	-0.13966322
88	0x3e83f84a	0.25775367
89	0x3e2b79bb	0.16745655
90	0x3e04d8df	0.12973355
91	0xbdae6def	-0.08517062
92	0xbdac80cd	-0.08423004
93	0x3d2b86a6	0.041876458
94	0xbf7b1722	-0.9808217
95	0xbca6e3ed	-0.020372355
96	0xbd293634	-0.041311458
97	0x3e60d8f4	0.21957761
98	0x3d8d91f3	0.06912603
99	0x3c3be796	0.011468789
100	0x3df08e2c	0.11745867
101	0xbe69f294	-0.22846442
102	0x3e49a204	0.1969071
103	0xbd9a83de	-0.07544683
104	0x3dd7c795	0.10536114
105	0xbe6e6658	-0.23281229
106	0xbdc46df6	-0.09591286
107	0xbe649f87	-0.2232648
108	0x3e6a7b11	0.22898509
109	0x3c976fd5	0.018485943
110	0xbd83fd5b	-0.06444808
111	0x3dcfb66a	0.101422146
112	0x3e86fc84	0.2636453
113	0xbece67d3	-0.40313587
114	0xbe7d4be0	-0.24735975
115	0xbe1f4729	-0.15554489
116	0x3e05c778	0.13064373
117	0x3e16cb9b	0.14726107
118	0x3e740d68	0.23833239
119	0xbd2b4770	-0.041816175
120	0xbdb0404a	-0.08606012
121	0x3e42a807	0.1900941
122	0xbd467b91	-0.048457686
123	0xbd12db25	-0.035853524
124	0xbe41c926	-0.18924388
125	0xbdb13c86	-0.08654122
126	0x3e4dffd0	0.20117116
127	0x3e77c645	0.24196728
128	0x3e638206	0.22217569
129	0x3e369ff7	0.17834459
130	0xbd586d91	-0.052838866
131	0xbe80d8f9	-0.25165537
132	0x3e78d382	0.24299434
133	0xbe19e797	-0.15029751
134	0x3dec9337	0.115515165
135	0xbe45f7e5	-0.19332846
136	0xbeac1155	-0.33606973
137	0xbe762d5b	-0.24040739
138	0xbc8b3db3	-0.016997194
139	0xbe677a6e	-0.22605297
140	0x3b3d9a1e	0.0028930972
141	0xbf080d4e	-0.531453
142	0xbe825a91	-0.25459722
143	0x3debb2e8	0.11508733
144	0x3e8f0b50	0.27938318
145	0x3e18f564	0.14937359
146	0x3d83d163	0.06436422
147	0x3e275f38	0.16344917
148	0x3e5c6809	0.21524061
149	0xbe430247	-0.19043837
150	0x3e81b2ec	0.2533182
151	0x3ca97de3	0.02068991
152	0xbdeaef95	-0.11471478
153	0x3dcd9041	0.1003728
154	0xbe86c27e	-0.2632026
155	0x3e4270bd	0.18988319
156	0xbdf26522	-0.11835696
157	0xbdef743d	-0.116920926
158	0x3e5d2143	0.2159472
159	0x3dec7db3	0.11547413
160	0xbc745d47	-0.014914817
161	0xbf234e20	-0.63791084
162	0x3dca1acf	0.098683946
163	0xbe5cc0b3	-0.21557884
164	0xbeb83240	-0.35975838
165	0x3e0af0ad	0.13568373
166	0x3e255992	0.1614745
167	0xbc516563	-0.01278052
168	0xbe0f305f	-0.13983296
169	0x3e49f968	0.19724047
170	0x3d98c851	0.07460082
171	0xbe1fc961	-0.15604164
172	0x3d1747b1	0.036933605
173	0xbe28d286	-0.16486558
174	0xbd8d383a	-0.0689549
175	0xbd70c8f2	-0.058785386
176	0x3e53f4f8	0.20698917
177	0x3cc64ffc	0.024208061
178	0xbf3068cd	-0.68909913
179	0xbcc3479e	-0.02383786
180	0x3d2239c2	0.039605863
181	0xbdc2405d	-0.094849326
182	0xbc97b3d8	-0.018518373
183	0x3e8807e7	0.2656853
184	0x3e0f7d19	0.14012565
185	0x3e006a15	0.12540467
186	0xbea3b5b8	-0.31974578
187	0xbe4e0b50	-0.20121503
188	0xbde597eb	-0.11210617
189	0x3e3bbf7d	0.18334766
190	0x3e8c0fd9	0.2735584
191	0xbe362136	-0.17786106
192	0x3e2dd34d	0.16975136
193	0xbdb48237	-0.08813899
194	0x3d6b6465	0.05746879
195	0x3e4348fe	0.19070813
196	0x3e2523e9	0.1612698
197	0xbf1e1258	-0.6174674
198	0xbc850f10	-0.016242534
199	0x3e60aff0	0.21942115
200	0xbd1f7d78	-0.038938016
201	0x3e764696	0.24050364
202	0xbe448d53	-0.19194536
203	0x3eda0109	0.42578915
204	0xbe42d578	-0.19026744
205	0xbe27d69d	-0.16390462
206	0xbe11e9a7	-0.14249288
207	0x3e4a9733	0.1978424
208	0xbd7a4390	-0.06109959
209	0xbe8232cf	-0.2542939
210	0x3e226cab	0.15861766
211	0x3d90533f	0.07047128
212	0x3e778ea4	0.24175507
213	0xbe77b334	-0.24189454
214	0x3df649a5	0.12025765
215	0xbe806f52	-0.2508493
216	0xbe4b63fe	-0.19862363
217	0x3e9ed381	0.3102074
218	0xbe014878	-0.12625301
219	0x3eaed3a7	0.34145853
220	0xbe9edfe9	-0.31030205
221	0x3d035fc5	0.032073755
222	0x3e388f72	0.1802347
223	0xbe65e4ea	-0.22450605
224	0x3d437b0a	0.04772476
225	0xbe0bbf30	-0.13647151
226	0xbc3e379b	-0.011609937
227	0xbe41a006	-0.189087
228	0x3e002aa4	0.12516266
229	0xbe286152	-0.16443375
230	0xbd3838eb	-0.044976156
231	0xbdc07cb0	-0.09398782
232	0xbc5a6d14	-0.01333167
233	0x3ea1417c	0.31495273
234	0xbe9c7736	-0.305597
235	0x3e4ffdbc	0.20311636
236	0x3d326d85	0.043561477
237	0xbc3a4d92	-0.011371033
238	0x3cc82baf	0.024434892
239	0xbcd38a25	-0.025822708
240	0xbe2ee82c	-0.17080754
241	0xbdac2ca9	-0.08406956
242	0xbf380ecd	-0.71897584
243	0x3e0295c7	0.12752448
244	0xbda30837	-0.07960551
245	0x3ed63b2e	0.41842026
246	0xbe7a8e9c	-0.24468464
247	0x3d1a3cc6	0.037655614
248	0x3e58e9c8	0.2118293
249	0x3e3607df	0.1777644
250	0xbe6a1814	-0.22860748
251	0xbe1464a5	-0.14491518
252	0x3a588207	0.00082591217
253	0xbe6f78c4	-0.23385912
254	0xbe8e11a4	-0.27747834
255	0xbe712f06	-0.23553094

net.0.bias f4 [512]
0	0x3e10f480	0.1415577
1	0xbd4ef04b	-0.05052213
2	0xbe83fcc6	-0.25778788
3	0xbe4e84bb	-0.2016782
4	0xbe767e51	-0.24071623
5	0xbe08f87a	-0.13376036
6	0xbd34ccfa	-0.044140793
7	0xbde57e30	-0.11205709
8	0xbe122845	-0.14273174
9	0xbdde280d	-0.10847483
10	0xbe144e2e	-0.14482948
11	0xbde99311	-0.11405004
12	0x3ca6526f	0.02030298
13	0xbdf0c24d	-0.1175581
14	0xbdd1f9dc	-0.10252735
15	0x3cff1a7b	0.031140557
16	0xbd6a9bfc	-0.057277665
17	0x3e1b14ef	0.15144704
18	0xbe0c8d12	-0.13725689
19	0x3e145066	0.14483795
20	0x3de1221d	0.10992835
21	0x3e064c80	0.1311512
22	0xbcc07cf6	-0.023497086
23	0x3cdcdbc3	0.02696026
24	0xbe14568a	-0.14486137
25	0xbdbb445d	-0.09143899
26	0x3d91a109	0.07110793
27	0xbd30f5cd	-0.043203164
28	0xbd4d6e66	-0.050154112
29	0x3e253faa	0.16137567
30	0xbe58e35d	-0.21180482
31	0xbe5fc751	-0.21853377
32	0xbe28f625	-0.16500147
33	0xbdaf03e2	-0.085456625
34	0x3cf0be06	0.029387485
35	0xbe408676	-0.18801293
36	0xbe533743	-0.2062655
37	0xbd51ce45	-0.051222105
38	0x3e09fd83	0.13475613
39	0x3e11d7db	0.14242499
40	0x3e191d96	0.14952692
41	0x3d3d1d8b	0.046170752
42	0x3d8411d2	0.064487115
43	0x3e452356	0.19251761
44	0x3d4395d2	0.0477503
45	0xbe7d1a43	-0.2471705
46	0xbdff392a	-0.12462075
47	0xbdbe3007	-0.09286504
48	0xbdde666c	-0.10859379
49	0x3d472023	0.048614632
50	0xbd5a5bc7	-0.053310182
51	0xbdacb50b	-0.08432969
52	0xbcbdfb5e	-0.02319115
53	0x3e033816	0.12814364
54	0x39c0d821	0.00036782122
55	0x3db44688	0.08802515
56	0xbe8ec3a8	-0.2788365
57	0xbe736411	-0.23768641
58	0x3dd31dbd	0.103084065
59	0xbe025626	-0.12728176
60	0xbddbcc5b	-0.10732337
61	0x3d1abffd	0.03778075
62	0xbda7e685	-0.08198265
63	0xbd7b271c	-0.061316594
64	0xbdc02ee9	-0.093839474
65	0x3d2c8854	0.0421222
66	0xbe53ed94	-0.20696098
67	0xbdef6778	-0.11689657
68	0x3e520066	0.20507964
69	0xbe48f9c7	-0.19626532
70	0x3d6d4114	0.05792339
71	0x3e0804a8	0.13283026
72	0xbe646a08	-0.22306073
73	0xbdce15e8	-0.10062772
74	0x3e6aeeae	0.22942612
75	0x3e7f92d8	0.2495836
76	0x3e2aa3a0	0.1666398
77	0x3daf3137	0.08554309
78	0xbe44157c	-0.1914882
79	0xbc573f06	-0.013137585
80	0x3d9a36ef	0.07530009
81	0x3b95f36c	0.0045761373
82	0xbe89e5cf	-0.26933143
83	0x3d6e7ec3	0.05822636
84	0xbe00fbe1	-0.12596084
85	0xbe46bf29	-0.1940886
86	0xbdba2935	-0.09089891
87	0xbe33800b	-0.17529313
88	0xbe2caa82	-0.16861919
89	0xbcea614e	-0.028610852
90	0xbcf490bc	-0.029854171
91	0xbdbe8068	-0.09301835
92	0xbdf1c42b	-0.11804994
93	0xbe981dff	-0.29710385
94	0x3e45a6e0	0.19301939
95	0x3e4e6d02	0.2015877
96	0x3e116413	0.14198332
97	0xbe1905bb	-0.14943592
98	0xbe904133	-0.28174743
99	0x3e05982f	0.13046335
100	0xbe1fa5f4	-0.1559065
101	0xbddc0e69	-0.10744936
102	0x3ccd7d2d	0.025084103
103	0x3d806bd8	0.062705696
104	0x3e6c8df7	0.2310103
105	0xbcd26120	-0.025681078
106	0xbe6c5890	-0.23080659
107	0x3e03a0a6	0.12854251
108	0x3c6ff03b	0.014644678
109	0x3e872843	0.26397905
110	0x3e1572d8	0.1459459
111	0xbd7fa1ac	-0.06241004
112	0xbdba419a	-0.09094544
113	0x3dde4380	0.10852718
114	0x3e4ec5be	0.2019262
115	0xbe1ff729	-0.15621628
116	0xbe15b0c1	-0.14618208
117	0xbe2d927e	-0.16950414
118	0xbdcd7efc	-0.10033986
119	0xbe28ec62	-0.16496423
120	0xbe07e74a	-0.13271824
121	0xbdbd31d7	-0.09238022
122	0x3d4627a3	0.048377644
123	0xbe58fe06	-0.21190652
124	0xbd76801d	-0.060180772
125	0x3e2f7f41	0.17138387
126	0x3daf41a5	0.085574426
127	0x3da30dc2	0.079616085
128	0xbe13cb39	-0.14432992
129	0x3e5e82de	0.2172961
130	0xbc8d8dd7	-0.017279549
131	0x3e3e4c92	0.18583897
132	0x3e6e0fe8	0.23248255
133	0xbe88c2de	-0.26711172
134	0x3dfc9872	0.12333764
135	0x3e04cb92	0.12968281
136	0xbb12cc9a	-0.0022399784
137	0x3dd0740b	0.101783834
138	0xbdabcc53	-0.08388581
139	0xbdbf95fe	-0.093547806
140	0xbe3a12d9	-0.18171252
141	0xbe32754d	-0.17427559
142	0x3eb978d7	0.36225006
143	0xbd952256	-0.0728194
144	0x3d8ea50d	0.06965075
145	0x3e0028c5	0.12515552
146	0xbd407353	-0.04698498
147	0x3deb9867	0.11503678
148	0xbca9843d	-0.020692939
149	0xbc585610	-0.013204113
150	0xbdbfdae4	-0.09367922
151	0xbe19bf39	-0.15014352
152	0x3c92d093	0.017921722
153	0xbe1e21e4	-0.15442616
154	0xbe3b7808	-0.18307507
155	0xbe65c8b9	-0.22439851
156	0x3e86889f	0.2627611
157	0x3d68bcdf	0.056820747
158	0x3e0881ea	0.13330808
159	0xbe288794	-0.16457969
160	0x3e71c056	0.23608527
161	0x3ddcb7c5	0.10777239
162	0xbe547665	-0.20748289
163	0x3e116871	0.14199997
164	0xbe1c81da	-0.1528391
165	0x3e4de06c	0.20105141
166	0xbdbeda74	-0.093190104
167	0x3e5b865b	0.21437971
168	0xbe43e089	-0.19128622
169	0xbe2c33fa	-0.16816702
170	0x3def72b4	0.116918
171	0xbe1b0dbb	-0.15141957
172	0xbd91e0c3	-0.07122948
173	0xbe8f7b93	-0.28023967
174	0xbd33af62	-0.04386843
175	0xbe1964e1	-0.14979888
176	0x3e31d10b	0.173649
177	0x3dc1eb77	0.094687395
178	0xbe4ad729	-0.1980864
179	0xbd878c75	-0.06618587
180	0x3e3fff93	0.18749838
181	0x3d4da867	0.05020943
182	0x3e340cca	0.17583004
183	0xbd2fac0c	-0.042888686
184	0xbd8a2f74	-0.06747332
185	0x3dd5cade	0.104390845
186	0x3e6a3f62	0.22875741
187	0x3e185ea1	0.14879848
188	0xbe5145a7	-0.20436727
189	0x3e671f11	0.22570445
190	0x3da1c75e	0.078993544
191	0xbe050709	-0.12990965
192	0xbd8a7dbd	-0.06762264
193	0xbea8ca3a	-0.32966787
194	0xbe084876	-0.13308892
195	0x3c294542	0.010331454
196	0xbe256f85	-0.16155823
197	0xbe83b8cc	-0.25726926
198	0x3bad6f27	0.0052927914
199	0xbe8a5f8e	-0.27026027
200	0x3e4caa7f	0.19986914
201	0xbe6b4d75	-0.22978766
202	0xbe93ee3a	-0.2889269
203	0xbe075463	-0.13215785
204	0xbe8ad014	-0.27111876
205	0x3d02a431	0.031894866
206	0x3e2eae8d	0.17058773
207	0x3d0ecce4	0.034863368
208	0xbe01d663	-0.12679438
209	0xbea0b5dc	-0.31388748
210	0xbe83d45d	-0.25747958
211	0xbe0ed6d9	-0.13949145
212	0x3e71a07e	0.23596379
213	0x3e037a6c	0.12839669
214	0xbd2c79bc	-0.042108282
215	0xbe01d399	-0.12678374
216	0x3db4e114	0.08831993
217	0x3ddf6e3a	0.10909696
218	0xbe70bec9	-0.23510279
219	0xbd933efe	-0.07189749
220	0x3de633c3	0.112403415
221	0xbe25e5f3	-0.16201
222	0x3d0ddfa0	0.034637094
223	0x3defe565	0.117136754
224	0xbc605dca	-0.013694236
225	0xbe57a230	-0.21057963
226	0x3e003be5	0.12522848
227	0xbe6d90d5	-0.2319978
228	0xbe118d89	-0.14214148
229	0x3d41920a	0.047258414
230	0x3da8aedf	0.08236479
231	0xbda27111	-0.07931722
232	0x3df24b4a	0.118307665
233	0x3e439390	0.1909926
234	0xbc48e37e	-0.01226127
235	0x3b990b88	0.004670564
236	0x3db5a225	0.08868817
237	0xbea6ad96	-0.3255431
238	0xbe836fcb	-0.2567123
239	0xbde8a0b3	-0.11358776
240	0x3d981554	0.07425943
241	0x3dd372c0	0.10324621
242	0x3d70c4c8	0.058781415
243	0x3e54fa20	0.2079854
244	0xbe1f27eb	-0.15542571
245	0x3e73f998	0.23825681
246	0x3e24ba95	0.160868
247	0xbe712773	-0.23550205
248	0xbe0e7fba	-0.13915911
249	0xbd9377da	-0.07200594
250	0xbbf8f8ae	-0.0075980043
251	0x3e17a61a	0.14809456
252	0xbe075321	-0.13215305
253	0x3d8e4f08	0.06948668
254	0xbe51cedc	-0.20489067
255	0xbe317db7	-0.17333113

net.2.weight f4 [256, 512]
0	0xbcf4e522	-0.029894415
1	0xbd117a7e	-0.03551721
2	0xbd89513a	-0.06704946
3	0xbd249797	-0.04018363
4	0x3d628b44	0.055308595
5	0xbd4173f2	-0.047229715
6	0xbd747871	-0.059685174
7	0x3bf39b6d	0.0074342997
8	0xbd5d8af1	-0.054087583
9	0x3a56b527	0.0008190446
10	0xbd4551ad	-0.048173595
11	0xbe05570a	-0.13021484
12	0xbda56703	-0.080762886
13	0xbd30ac37	-0.043132987
14	0x3d510bbf	0.051036593
15	0xbdc4f827	-0.09617644
16	0x3ddf21f7	0.1089515
17	0xbd301777	-0.042991128
18	0xbd35b917	-0.04436597
19	0xbc780d31	-0.015139864
20	0xbda33525	-0.07969121
21	0xbd6d0933	-0.0578701
22	0xbb751066	-0.0037393807
23	0xbd0be64f	-0.034155186
24	0xbcb5dc34	-0.022199728
25	0xbc89f336	-0.016839605
26	0x3bc680bc	0.006057827
27	0xbd2af6fe	-0.041739456
28	0x3d131491	0.035908286
29	0x3cd3c04e	0.025848534
30	0x3db8fb20	0.09032273
31	0xbb51bd42	-0.0032003676
32	0x3d340621	0.043951157
33	0x3dc1826c	0.09448704
34	0xba4a8e20	-0.0007726867
35	0x3dcfd8a7	0.10148745
36	0x3dd9ba69	0.10631258
37	0xbd2b5dd0	-0.041837513
38	0x3dd3d4e1	0.10343338
39	0x3beafc72	0.007171207
40	0xbc1171e9	-0.008877256
41	0xbd8cc11e	-0.06872772
42	0x3c25eb85	0.010126953
43	0xbd1736f7	-0.036917653
44	0x3d0daa34	0.034586146
45	0xbddb7a8b	-0.107167326
46	0xbd0c8af3	-0.0343122
47	0x3cdc62a2	0.0269025
48	0x3c84d51a	0.016214896
49	0xbaf9117c	-0.0019002403
50	0xbd4c694e	-0.049905114
51	0xbbc69d27	-0.0060612145
52	0x3bf5af85	0.00749773
53	0xbdcbb9b1	-0.09947527
54	0xbda99c34	-0.082817465
55	0xbd815f96	-0.0631706
56	0x3d4b00be	0.049561255
57	0xbdaa00ee	-0.083009586
58	0xbd75758f	-0.059926566
59	0x3bcdf9ce	0.0062858826
60	0xbdef2540	-0.11677027
61	0x3c8db48e	0.01729801
62	0xbd30ec0f	-0.043193873
63	0xbca69f01	-0.02033949
64	0xbbafcc7d	-0.005364953
65	0x370fac58	8.563591e-06
66	0xba50dd1d	-0.0007967519
67	0xbd4ca517	-0.04996213
68	0xbe07f36f	-0.13276456
69	0xbd28bb62	-0.041194327
70	0x3d833cc3	0.06408074
71	0x3c17356d	0.009229046
72	0xbd71bc24	-0.059017316
73	0x3cbf2a12	0.02333549
74	0xbcadf9f2	-0.021237347
75	0xbcda21a0	-0.026627362
76	0x3c16b930	0.009199426
77	0xbd9cbfef	-0.07653796
78	0xbd2e022e	-0.042482547
79	0x3c360695	0.011109968
80	0xbc97ef56	-0.018546741
81	0x39cd7698	0.00039189006
82	0x3caf2dda	0.021384168
83	0x3ca47654	0.020075954
84	0xbc52e417	-0.012871764
85	0xbe00947e	-0.12556645
86	0x3cfde8fc	0.030994885
87	0xbbe452ff	-0.0069679017
88	0xbe1aaccf	-0.15104984
89	0xbdad32d2	-0.08456959
90	0xbc983b8e	-0.018583085
91	0xbc779290	-0.015110627
92	0xbc181e9e	-0.009284643
93	0xbcacad55	-0.021078745
94	0x3bd5aad9	0.006520611
95	0xbe232560	-0.15932226
96	0xbd79da8a	-0.06099943
97	0xbd18f04c	-0.03733854
98	0xbd836ac3	-0.064168476
99	0xbdc4b7c5	-0.09605364
100	0xbcb9b22d	-0.022667969
101	0x3c8c3e67	0.0171196
102	0xbb18b31c	-0.0023300117
103	0xbd177eaa	-0.03698603
104	0xbcca4f5f	-0.02469605
105	0xbd468570	-0.0484671
106	0x3c2d218e	0.010567082
107	0xbd6cdd22	-0.057828076
108	0xbbec6e42	-0.007215292
109	0xbc55ff5c	-0.013061371
110	0xbd012878	-0.031532735
111	0x3db330cc	0.08749542
112	0xbd583525	-0.052785058
113	0xbcd66468	-0.026170924
114	0x3c578847	0.01315505
115	0xbd320d4a	-0.043469705
116	0xbdadb680	-0.08482075
117	0x3c81f239	0.015862571
118	0xbc9ec580	-0.019381285
119	0xbdff09fc	-0.12453076
120	0x3c246b41	0.010035337
121	0xbc97fc81	-0.01855302
122	0xbd7b37f2	-0.06133265
123	0x3caecb81	0.021337273
124	0x3cb37cfd	0.021910185
125	0xbcf4ef06	-0.029899132
126	0x3d113002	0.035446174
127	0x3a83e318	0.0010062186
128	0xbd70147e	-0.058613293
129	0x3c537086	0.012905246
130	0xbde239ed	-0.11046205
131	0xbd4cf983	-0.05004264
132	0x3c1e32db	0.00965568
133	0xbd1699ff	-0.036767956
134	0xbdad26bd	-0.08454654
135	0xbbdcbf69	-0.006736685
136	0xbd5c5f5b	-0.053801876
137	0xbdc95ff8	-0.09832758
138	0xbd7d16f6	-0.061789475
139	0xbd0bde27	-0.034147408
140	0x3c86f015	0.016471902
141	0x3cf79911	0.030224355
142	0xbe285722	-0.16439489
143	0xbdf6601a	-0.12030049
144	0xbd2d11d1	-0.04225332
145	0xbc885fad	-0.016647184
146	0xbd2ef434	-0.04271336
147	0xbde322f1	-0.11090649
148	0x3d008a7f	0.03138208
149	0xbdb67eb1	-0.08910883
150	0xb9d195c0	-0.0003997516
151	0xbc8bca94	-0.01706437
152	0xbd523415	-0.0513192
153	0xbd05179a	-0.03249321
154	0x3cc493ae	0.0239962
155	0x3e70a945	0.23502071
156	0xbd769121	-0.060197
157	0xbc8bb7c9	-0.017055409
158	0x3d29087f	0.041267868
159	0x3dbe5cba	0.0929503
160	0xbcf4be97	-0.029876037
161	0xbc03bb85	-0.008040314
162	0xbc9f9646	-0.019480836
163	0x3bb4f0cb	0.005521869
164	0x3c526235	0.012840797
165	0xbd3f80db	-0.046753746
166	0xbd32bec1	-0.04363895
167	0xbe05050a	-0.12990203
168	0x3dd78f06	0.105253264
169	0xbda36972	-0.079790965
170	0xbcc937b1	-0.024562689
171	0xbc9043bf	-0.017610429
172	0x3bdcb077	0.0067349034
173	0xbd3b77d7	-0.045768585
174	0xba11d38c	-0.0005562834
175	0xbd3ec53d	-0.04657482
176	0x3cb8ccb4	0.022558548
177	0x3dd60fd6	0.10452239
178	0x3dd7b6ec	0.105329365
179	0x3d478605	0.048711795
180	0x3b3f8f1a	0.0029229582
181	0xbd1c6229	-0.03817955
182	0x3af246e3	0.0018484261
183	0x3c7d0c05	0.01544476
184	0xbb8ad979	-0.0042373505
185	0x3c4813ed	0.012211782
186	0xbc163e32	-0.009170102
187	0xbc60c312	-0.013718383
188	0x3cee3877	0.029079659
189	0xbdb2ebbc	-0.08736369
190	0xba09d5fa	-0.000525802
191	0xbb814bfb	-0.003945825
192	0xbd2db2cd	-0.042406846
193	0xbca4208f	-0.020035056
194	0xbd8b8ac1	-0.068135746
195	0xbd365198	-0.044511408
196	0x3dd0c5f5	0.10194007
197	0xbd1df242	-0.038561113
198	0xbdc6a351	-0.09699119
199	0x3cea51cf	0.028603463
200	0xbcf5c4f3	-0.03000114
201	0x3d4bdc60	0.049770713
202	0xbe2b0b3b	-0.16703503
203	0xbd2ab540	-0.04167676
204	0x3c49bde0	0.012313336
205	0xbd691315	-0.056902964
206	0xbcf868e9	-0.030323463
207	0xbd569a23	-0.05239309
208	0xbdc9ae4e	-0.09847699
209	0xbd80da3c	-0.06291625
210	0x3c81e705	0.015857229
211	0x3d6c8c1b	0.057750802
212	0xbd7605cc	-0.060064122
213	0x3d6ded0a	0.058087386
214	0xbcef2bbb	-0.029195657
215	0x3bd24f72	0.006418162
216	0xbdf44348	-0.119268954
217	0xbdd75db7	-0.105159216
218	0x3d95befb	0.07311817
219	0x3d0a7028	0.033798367
220	0xbda4b709	-0.08042724
221	0x3d3de348	0.04635933
222	0x3c82eab7	0.015981061
223	0xbc69b9ad	-0.01426546
224	0xbc45e0ba	-0.012077505
225	0x3ca81f0e	0.02052262
226	0xb9c984e9	-0.00038436733
227	0x3ab5da37	0.0013874237
228	0x3e0367a0	0.12832499
229	0xbce5976e	-0.028026309
230	0xbd361c3c	-0.04446052
231	0xbd8fa0ac	-0.070130676
232	0xbde5e926	-0.1122611
233	0xbc7dfb6e	-0.01550184
234	0xbd965fbd	-0.073424794
235	0xbdca39ab	-0.098742805
236	0xbd307b66	-0.043086432
237	0xbdcfd2ef	-0.10147654
238	0x3b062369	0.0020467883
239	0xbd12366c	-0.035696432
240	0xbdb8a1ae	-0.09015213
241	0x3d1288d0	0.035775006
242	0xbe678dac	-0.22612637
243	0xbeb8c120	-0.36084843
244	0x3d1d21aa	0.038362183
245	0xbdd22806	-0.1026154
246	0xbdcb0330	-0.09912717
247	0x3c28f56c	0.010312419
248	0x3d93db88	0.07219607
249	0xbcac577d	-0.021037811
250	0x3b5dfaad	0.0033871338
251	0xbcc596ec	-0.024119817
252	0xbd1acb1e	-0.037791364
253	0xbd83e587	-0.06440263
254	0xbca47baa	-0.020078499
255	0xbcdd23a7	-0.02699454

net.2.bias f4 [256]
0	0xbcb8e15a	-0.022568393
1	0x3d7f89b2	0.062387176
2	0xbd0e48dd	-0.034737457
3	0xbc43e8f4	-0.011957396
4	0x3b4afe2f	0.003097426
5	0x3c0cb7bc	0.008588728
6	0xbb8a9716	-0.0042294366
7	0x3c940453	0.018068468
8	0x3d521729	0.05129162
9	0xbc7c4075	-0.015396227
10	0x3d2da42c	0.042392895
11	0xbd6b8478	-0.05749938
12	0x3d510ba9	0.05103651
13	0x3c68d17a	0.014210099
14	0xbcc5392a	-0.02407511
15	0xbc5af58e	-0.013364209
16	0xbd2b1828	-0.041771084
17	0xbdb21f6a	-0.08697398
18	0xbcdb9022	-0.026802126
19	0x3e09955d	0.13435884
20	0x3cdf4559	0.027254747
21	0x3d21a755	0.03946622
22	0xbd2133ae	-0.039355926
23	0x3cdcffab	0.02697738
24	0x3de5ce8e	0.11221038
25	0x3b897b2f	0.004195593
26	0x3d47ec7b	0.04880951
27	0x3b4efc03	0.0031583316
28	0x3c2e3be6	0.010634398
29	0x3c273d8f	0.010207548
30	0xbc639c63	-0.013892266
31	0xbd883eb2	-0.06652583
32	0xbc9f259f	-0.019427119
33	0x3cbef4e1	0.023310127
34	0x3bd81159	0.006593865
35	0x3cbc9a62	0.023022834
36	0x3af04951	0.0018332397
37	0xbb6adf16	-0.0035838536
38	0x3bd1bd32	0.0064007277
39	0xbb420f35	-0.0029611115
40	0x3d322993	0.04349668
41	0xbd836ec1	-0.06417609
42	0x3bc7f362	0.0061020115
43	0xbc9d077a	-0.019168604
44	0xbd56757e	-0.052358143
45	0x3d61ffdb	0.055175643
46	0xbd951b28	-0.0728057
47	0x3d049d3d	0.032376517
48	0x3c365ecb	0.011130999
49	0xbd9b7129	-0.07589943
50	0xbbe1d9b9	-0.0068924096
51	0xbb697813	-0.0035624548
52	0xbdcb3d7e	-0.09923838
53	0xbc8281b5	-0.01593099
54	0x3caad668	0.02085419
55	0x3b01b163	0.0019789569
56	0x39fcb881	0.00048202652
57	0xbdb40e06	-0.08791737
58	0x3d07feef	0.033202108
59	0x3d3560f6	0.044281922
60	0x3c1580e3	0.009124967
61	0xbcdc03be	-0.026857253
62	0x3cb480d8	0.022034094
63	0xbb76aafe	-0.003763854
64	0x3cf5d71a	0.030009795
65	0xbd2a1a85	-0.041529197
66	0x3bbc1edb	0.005740983
67	0x3cf90b2a	0.030400831
68	0x3b4d61b7	0.003133876
69	0x3ca08c6c	0.019598208
70	0x3ca2f185	0.019890556
71	0x3c870fec	0.016487084
72	0xbcc2f5d9	-0.02379887
73	0xbd12e022	-0.03585828
74	0xbd5b58dd	-0.053551544
75	0xbca2e389	-0.019883888
76	0x3cb986dd	0.022647316
77	0x3cc3cd24	0.02390153
78	0x3c314f9b	0.010822202
79	0x3c6a1aca	0.014288614
80	0x3d6db4a3	0.058033597
81	0xbd3b7725	-0.045767922
82	0x3d60ea20	0.05491078
83	0xbd8eba5e	-0.069691405
84	0xbdbc1d09	-0.091852255
85	0xbb21102e	-0.0024576294
86	0x3ba01ba8	0.0048861094
87	0xbdc65d75	-0.09685794
88	0x3cf80602	0.030276302
89	0xbc8d3856	-0.017238777
90	0x3b7af9ea	0.0038295933
91	0x3d49d00c	0.049270675
92	0xbd47fde1	-0.048826102
93	0xbcb4c265	-0.02206535
94	0x3bd02b86	0.0063528446
95	0x3d55afe8	0.05216971
96	0xbd92d056	-0.07168643
97	0x3cbe6389	0.023240821
98	0xbd938411	-0.07202924
99	0x3d2a6523	0.041600358
100	0x3d0c9fc9	0.03433207
101	0x3d34be4c	0.044126794
102	0x3c9990c5	0.01874579
103	0xbd1c99c9	-0.0382326
104	0xbd609336	-0.05482789
105	0x3da5ee8b	0.08102139
106	0x3d84ad81	0.06478406
107	0x3c0b3f37	0.008498958
108	0x3c83ec49	0.01610388
109	0x3d051eb2	0.032499976
110	0xbd5bc067	-0.053650286
111	0x3da17c14	0.07884994
112	0xbcad37d8	-0.021144792
113	0x3d0c6e4e	0.034284882
114	0x3d8b37f8	0.067977846
115	0xbbeb91cb	-0.0071890107
116	0x3d446e8f	0.047957
117	0xbcdaad3a	-0.026693929
118	0x3d763a05	0.060113925
119	0xbda14b8b	-0.07875737
120	0x3d86f18a	0.06589039
121	0xbd94951e	-0.07255004
122	0xbc0580fe	-0.00814843
123	0x3d4668ea	0.048439898
124	0xbc90df7c	-0.01768469
125	0xbcaf5f65	-0.021407792
126	0x3c1a6001	0.009422303
127	0xbd6ad12d	-0.05732839
128	0x3d8564e0	0.06513381
129	0x3d19384d	0.03740721
130	0x3cf550d6	0.029945772
131	0xbd770856	-0.060310684
132	0xbd32065d	-0.0434631
133	0xbd4dc544	-0.050236955
134	0xbd26dfb7	-0.040740695
135	0xbd0a116d	-0.033708025
136	0xbd980129	-0.07422096
137	0x3d195b7e	0.03744077
138	0xbd4148fc	-0.047188744
139	0xbcc11e13	-0.02357391
140	0xbdcdc9e1	-0.10048271
141	0x3d448cd5	0.04798587
142	0xbcabf4c9	-0.020990746
143	0x3d04fd7f	0.032468315
144	0xbc8a3cf1	-0.016874762
145	0x3cc9e78f	0.024646549
146	0xbda1bc3e	-0.078972325
147	0xbc699502	-0.014256718
148	0x3dc88016	0.097900555
149	0xbcb36aac	-0.021901451
150	0x3c87fe4a	0.016600747
151	0xbd30a68d	-0.043127585
152	0x3c949a12	0.018139873
153	0x3c498de7	0.012301899
154	0x3d283c3c	0.04107307
155	0x3d78f44d	0.06077986
156	0xbd53c5be	-0.051702254
157	0xbbb937d1	-0.005652406
158	0xbd2abe78	-0.04168555
159	0x3cc09bd7	0.02351181
160	0xbcd659f8	-0.026165947
161	0xbc55b0f6	-0.013042679
162	0x3d02809f	0.031860944
163	0x3b6151df	0.0034381074
164	0xbc3fd244	-0.011707846
165	0xbcde0e43	-0.02710641
166	0x3c986b59	0.018605875
167	0xbc793150	-0.015209511
168	0x3ba48b21	0.0050214683
169	0xbc0a7543	-0.008450809
170	0xbca2c68c	-0.019870065
171	0x3bc196c7	0.0059078666
172	0xbda2e1df	-0.07953238
173	0xb92bf26a	-0.00016398137
174	0xbc86b814	-0.016445197
175	0x3d103950	0.035210907
176	0xbb6b0ee3	-0.0035867027
177	0x3c01d3fe	0.007924078
178	0xbca7137e	-0.020395037
179	0xbc7c92c2	-0.015415849
180	0xbcea9600	-0.028635979
181	0xbc5d0e66	-0.013492202
182	0x3ba6db7c	0.0050920825
183	0x3c8337b1	0.016017767
184	0x3cc0e99e	0.023548897
185	0xbd1f0e9b	-0.03883229
186	0x3d2d3aef	0.04229253
187	0xbc88363b	-0.016627422
188	0xbb8b8aa0	-0.0042584687
189	0x3ccf2ce3	0.025289958
190	0x3d3fb8ad	0.04680698
191	0x3c1869ef	0.0093026
192	0x3c801cef	0.015638797
193	0x3cbd3986	0.023098718
194	0xbd8270de	-0.06369184
195	0xbd5e9b75	-0.054347474
196	0xbccde7c3	-0.025134927
197	0xbc5235b7	-0.012830189
198	0x3c5f987a	0.013647193
199	0xbb5bd8f3	-0.003354606
200	0x3d301c61	0.042995814
201	0x3d09894a	0.033578195
202	0xbc159022	-0.009128602
203	0xbc4750a9	-0.012165227
204	0xbd43d1e7	-0.0478076
205	0xbaae059e	-0.001327682
206	0x3ceb0011	0.028686555
207	0x3c64d8c3	0.013967696
208	0xbcdb2f78	-0.026756033
209	0xbd0659e2	-0.032800563
210	0x3c4ac208	0.012375362
211	0x3d4eada8	0.05045858
212	0xbbbc0d28	-0.005738873
213	0xbd08ef5e	-0.033431403
214	0xbd23ffbb	-0.040038805
215	0xbd82347d	-0.063576676
216	0xbced9a9d	-0.02900439
217	0xbd5d6914	-0.05405529
218	0xbce4b069	-0.02791615
219	0x3c1f6c35	0.009730388
220	0xbd59adb0	-0.053144157
221	0xbd90d085	-0.07071022
222	0xbd980bea	-0.074241474
223	0x3cab814a	0.020935673
224	0x3d0cb3fc	0.034351334
225	0x3d7a44b6	0.061100684
226	0x3b163178	0.002291767
227	0x3c15e184	0.009148005
228	0xbd4387ba	-0.04773686
229	0x3c684162	0.014175745
230	0x3d4e0aeb	0.05030338
231	0x3c188374	0.009308685
232	0xbd9d3332	-0.0767578
233	0x3c8c1d71	0.017103883
234	0xbd678827	-0.05652633
235	0x3c5237e6	0.01283071
236	0xbc9c0108	-0.01904346
237	0x3c2030ab	0.009777228
238	0xbc88e48e	-0.016710546
239	0xbdad240b	-0.0845414
240	0x3bfa2476	0.007633741
241	0xbc3fdeda	-0.011710847
242	0xbcb3135a	-0.021859813
243	0xbc9d862a	-0.019229013
244	0x3d80fc19	0.06298084
245	0xbb206e7b	-0.0024479914
246	0x3c2dc8ba	0.010606939
247	0x3bab131e	0.005220785
248	0x3caf9d6d	0.021437371
249	0x3cad38b1	0.021145197
250	0x3b61fd3b	0.0034483213
251	0x3c7c0e66	0.015384292
252	0xbc73a3be	-0.014870582
253	0x3c0e4f20	0.008685857
254	0x3d0241aa	0.031800903
255	0x3cd14ddd	0.025549823

net.4.weight f4 [128, 256]
0	0x3d9dab16	0.07698648
1	0xbcaf2364	-0.02137918
2	0x3cc74857	0.024326487
3	0x3dfbb061	0.12289501
4	0x3d33619b	0.043794256
5	0xbcdf2d69	-0.027243333
6	0xbd793917	-0.06084546
7	0x3dc3dcb6	0.09563582
8	0xbc82e908	-0.015980259
9	0xbc135caa	-0.008994261
10	0xbd99ee89	-0.075162
11	0x3d9e50e4	0.077302724
12	0xbd254d69	-0.040357027
13	0xbc66fde6	-0.01409862
14	0xbd03cbc1	-0.032176737
15	0xbb92c2d0	-0.00447879
16	0x3d6e23df	0.058139678
17	0xbd5049ca	-0.05085162
18	0x3ce32205	0.027726183
19	0x3c9999c5	0.01875008
20	0xbcde4fdc	-0.02713769
21	0xbdc8ff4b	-0.09814318
22	0xbd8aaed6	-0.067716286
23	0xbd027df8	-0.031858414
24	0xbb94c010	-0.004539497
25	0xbd8de7f2	-0.06929006
26	0x3daa6659	0.083203025
27	0x3de76b65	0.11299781
28	0xbcf4d484	-0.029886492
29	0xbde557bf	-0.11198377
30	0x3d9f744c	0.07785854
31	0xbdd1129a	-0.10208626
32	0x3de98fa1	0.11404348
33	0x3d09ba40	0.033624887
34	0x3c78a2a2	0.015175493
35	0xbc461fbe	-0.012092529
36	0x3e0d2e82	0.13787273
37	0xbc9b3340	-0.018945336
38	0x3d236bce	0.039897732
39	0xbca8d3e3	-0.020608848
40	0xbdbe2722	-0.09284808
41	0xbe235886	-0.15951738
42	0x3de29858	0.110642135
43	0xbdb08020	-0.08618188
44	0xbd0c2e45	-0.034223814
45	0xbd8a6cc3	-0.06759026
46	0xbcffe9fe	-0.031239506
47	0xbda5ee17	-0.08102053
48	0x3e5537b1	0.20822026
49	0xbc92a9c1	-0.01790321
50	0xbc422fae	-0.011852188
51	0x3ccc2ddc	0.024924211
52	0xbd0e03a2	-0.034671433
53	0xbc8cd0ab	-0.017189344
54	0xbcb9addf	-0.022665916
55	0xbd175826	-0.0369493
56	0xbdbc21cb	-0.09186133
57	0x3bdcb1d6	0.006735067
58	0x3ce68ae4	0.0281424
59	0x3cb63fea	0.022247273
60	0x3c70c72d	0.014695925
61	0xbd41efe1	-0.047347907
62	0x3c95ed0e	0.018301513
63	0x3dc3d161	0.0956142
64	0x3e03ea10	0.12882257
65	0x3eb3dc42	0.3512898
66	0x3c871515	0.016489545
67	0xbd3b314e	-0.045701317
68	0x3e3177bc	0.17330831
69	0x3df4b880	0.11949253
70	0x3d6a763c	0.057241663
71	0x3d8eda9d	0.06975291
72	0x3dba1ae0	0.09087157
73	0x3c903bf7	0.017606718
74	0xbd4e21e8	-0.050325304
75	0x3e670d0b	0.22563569
76	0xbd109288	-0.035295993
77	0x3e04b9f4	0.1296156
78	0xbcd0d610	-0.025492698
79	0x3d217bec	0.03942482
80	0xbd6811f3	-0.056657743
81	0xbcd4d874	-0.02598212
82	0x3da463b7	0.080268316
83	0x3c8cfca6	0.017210316
84	0xbd1822ea	-0.03714267
85	0x3e18a90f	0.1490824
86	0x3ccf1d22	0.025282446
87	0xbd80620d	-0.06268702
88	0x3dd5b267	0.10434418
89	0x3af99b5b	0.0019043492
90	0x3ca2633f	0.019822715
91	0x3d47387e	0.04863786
92	0x3ce9bb1d	0.028531605
93	0x3da732d0	0.081639886
94	0x3d76cc24	0.060253277
95	0x3e069011	0.13140894
96	0xbe2a4d49	-0.16631044
97	0x3e6454c5	0.22297962
98	0xbd38d51a	-0.045125104
99	0x3e92d29a	0.286763
100	0xbd89661c	-0.06708929
101	0xbcc7e5fd	-0.02440166
102	0x3e113082	0.1417866
103	0xbd38ee08	-0.04514888
104	0xbc2453ee	-0.010029776
105	0x3ccfb45c	0.025354557
106	0x3d010827	0.031501915
107	0x3e89f4c9	0.2694457
108	0x3bf0ebdf	0.007352337
109	0x3b9239cc	0.0044624563
110	0xbd6739ca	-0.056451596
111	0x3ce2bf55	0.027679125
112	0x3c70cd5e	0.014697401
113	0xbe1e0d04	-0.15434653
114	0x3d001ca7	0.031277325
115	0x3b4fc0ec	0.0031700684
116	0x3e1dd20e	0.15412161
117	0x3d443909	0.047905955
118	0xbdc73476	-0.09726803
119	0xbd3858bf	-0.04500651
120	0x3bbf5c46	0.0058398573
121	0x3d81e828	0.063431084
122	0x3c5019d3	0.0127014695
123	0x3ee8ec20	0.4549265
124	0x3d4fd6d5	0.05074199
125	0xbd4346bc	-0.04767488
126	0xbdcf478b	-0.101210676
127	0x3d594902	0.05304814
128	0x3dfb856b	0.12281307
129	0x3ddfdcc6	0.10930781
130	0xbd4e8cfa	-0.050427414
131	0xbd541832	-0.051780887
132	0xbc94de9d	-0.018172557
133	0xbd89bc49	-0.06725366
134	0xbd89b560	-0.06724048
135	0x3d939c35	0.072075285
136	0x3d699a25	0.05703177
137	0x3d9de48b	0.07709607
138	0xbd21fe3d	-0.0395491
139	0xbd2acde2	-0.04170025
140	0xbd1b3808	-0.037895232
141	0x3d4f35e8	0.05058852
142	0x3c82524c	0.015908383
143	0x3cea97c1	0.028636815
144	0xbda038c3	-0.078233264
145	0xbcf414cc	-0.029795073
146	0x3d23efb3	0.040023517
147	0x3d44ee23	0.048078667
148	0x3d2d06d7	0.04224285
149	0x3c5cf6ff	0.013486623
150	0xbd37540c	-0.044757888
151	0x3cc31f03	0.023818498
152	0x3dd6d707	0.10490232
153	0x3d8a3a3e	0.0674939
154	0x3ca30319	0.019898938
155	0x3cec4f7a	0.028846491
156	0x3d242c84	0.040081516
157	0x3de5c79b	0.11219712
158	0x3d80f85a	0.06297369
159	0x3ca027a3	0.01955015
160	0xbc9d86b8	-0.019229278
161	0x3e229001	0.15875246
162	0xbdb0c8f8	-0.08632082
163	0x3bac063d	0.005249767
164	0xbabe01b1	-0.0014496354
165	0x3d05b7be	0.032645933
166	0x3ea5ca3d	0.32380858
167	0x3d9ea45b	0.07746192
168	0x3df5dfbb	0.12005564
169	0xbd20706f	-0.039169725
170	0xbd34dab1	-0.044153873
171	0xbcca7586	-0.024714243
172	0x3ae364ee	0.0017348805
173	0x3d1bbf51	0.03802425
174	0x3e06c814	0.13162261
175	0x3d0f38ee	0.0349664
176	0x3e6db02f	0.2321174
177	0x3d091c1e	0.03347408
178	0x3e0c2a10	0.1368792
179	0xbc520821	-0.012819321
180	0x3c4c8e53	0.012485105
181	0xbcf17e4e	-0.029479172
182	0x3e26a058	0.16272104
183	0x3e25fece	0.16210482
184	0x3cbede43	0.023299342
185	0xbd81e59e	-0.06342624
186	0xbc0d61f3	-0.00862931
187	0x3d4fe227	0.050752785
188	0x3db15a32	0.086597815
189	0x3d91e7f7	0.07124322
190	0x3e5713e2	0.21003678
191	0x3e9cc8f9	0.3062208
192	0xbdc27a59	-0.09495992
193	0x3dd154f9	0.102212854
194	0x3d885311	0.06656469
195	0xbddb7cef	-0.107171886
196	0x3ef41e00	0.47679138
197	0xbc1f96cd	-0.009740544
198	0xbc33b8ab	-0.010969321
199	0xbb832d50	-0.0040032044
200	0x3e05c9f9	0.13065328
201	0xbd661b92	-0.056178637
202	0x3d4e43d5	0.05035766
203	0x3cac670d	0.021045232
204	0xbcd364ef	-0.025804965
205	0x3e2abd2a	0.16673723
206	0xbdad9831	-0.08476294
207	0xbc1a5a1d	-0.009420899
208	0x3d1f3655	0.038870174
209	0x3e5bac14	0.21452361
210	0x3bfca514	0.0077101085
211	0xbd2414ba	-0.04005883
212	0x3e8e0e0b	0.2774509
213	0xbd1a7fb5	-0.037719447
214	0x3e257dd8	0.16161287
215	0xbd2614b4	-0.040547088
216	0xbb936267	-0.0044978145
217	0x3d4fed07	0.050763156
218	0x3ea3d964	0.32001793
219	0x3c18943d	0.0093126865
220	0xbc65e618	-0.014031909
221	0x3c0be7fb	0.008539195
222	0xbcf69798	-0.030101582
223	0x3cbb00fe	0.022827622
224	0xbcca2714	-0.024676837
225	0x3eaef004	0.34167492
226	0xbc8e6e45	-0.017386565
227	0xbbb952d1	-0.0056556244
228	0x3e43694f	0.19083141
229	0x3e5a3c37	0.21312033
230	0xbbf51d8b	-0.0074803284
231	0xbc9dc79b	-0.019260218
232	0xbdb0d214	-0.08633819
233	0xbd539b16	-0.051661573
234	0x3e7d2010	0.24719262
235	0xbce50be9	-0.02795978
236	0xbc82a6ad	-0.015948618
237	0x3d678c28	0.056530148
238	0x3cbbcacb	0.022923848
239	0xbd812da5	-0.06307534
240	0xbd94ac8e	-0.07259475
241	0xbd2d7a09	-0.04235271
242	0x3d6d4d67	0.057935145
243	0x3ee062d1	0.4382539
244	0xbd6094e6	-0.0548295
245	0xbdeedbe3	-0.11663034
246	0x3ca319a5	0.01990969
247	0x3d2d367d	0.042288292
248	0x3d0cda03	0.0343876
249	0xbb300f80	-0.0026864707
250	0x3d31c444	0.043400064
251	0xbdb73c17	-0.08947008
252	0x3c2adf83	0.010429266
253	0x3e80a623	0.25126752
254	0xbc0556b7	-0.00813835
255	0x3e8186f2	0.25298268

net.4.bias f4 [128]
0	0x3db5839e	0.088629946
1	0x3d857b0c	0.0651761
2	0xbdaefb9e	-0.08544086
3	0xbd5b23fe	-0.05350112
4	0x3d83bbee	0.06432329
5	0x3d6fd6f3	0.0585546
6	0x3d43e9c3	0.047830354
7	0x3d8fc8c3	0.07020714
8	0xbbae22d0	-0.0053142086
9	0xbd2ae16b	-0.04171888
10	0x3d5d3d74	0.054013684
11	0xbdd58e00	-0.10427475
12	0x3bdd4c6f	0.0067534964
13	0xbd5e8610	-0.05432707
14	0xbd7bad46	-0.061444543
15	0x3d797970	0.060906827
16	0xbddae63f	-0.10688447
17	0x3dbb590b	0.09147843
18	0xbd1a6dc1	-0.037702326
19	0x3d557e71	0.052122537
20	0x3e161f07	0.14660273
21	0xbd0936a4	-0.033499375
22	0xbd481935	-0.048852164
23	0xbb49a92c	-0.0030771
24	0xbe1d4397	-0.15357815
25	0xbddc2554	-0.10749307
26	0x3d5ed5ac	0.054402992
27	0xbaab2bb9	-0.0013059295
28	0x3dc002ce	0.09375535
29	0xbba951f5	-0.0051672407
30	0x3da06d4e	0.07833348
31	0xbcc65c72	-0.024214003
32	0x3d98c7e6	0.074600026
33	0x3e101ce2	0.14073518
34	0x3dce24cb	0.100656115
35	0xbbc43c97	-0.005988668
36	0x3c890842	0.01672757
37	0x3c737b16	0.014860889
38	0xbda460c6	-0.080262706
39	0x3d8c3624	0.06846264
40	0x3df39c06	0.118949935
41	0x3c7318e8	0.014837481
42	0x3d4ce5c9	0.050023828
43	0xbbe4d2cb	-0.0069831363
44	0xbc8111fd	-0.015755648
45	0x3deb88d6	0.11500709
46	0x3cf493c4	0.029855616
47	0xbcc99bd5	-0.02461044
48	0xbd3fba65	-0.04680862
49	0x3c93ac15	0.018026391
50	0x3d1313a9	0.03590742
51	0x3d8b0160	0.06787372
52	0x3b010c18	0.0019691046
53	0xbd9b9065	-0.075959004
54	0xbcc9cc88	-0.02463366
55	0xbc14dc38	-0.009085707
56	0xbd973d81	-0.07384778
57	0xbdc830e0	-0.09774947
58	0x3cdad407	0.02671243
59	0xbc6453ee	-0.013936026
60	0x3be23dba	0.006904331
61	0x3cd52299	0.026017474
62	0x3bf3accd	0.007436371
63	0xbd885595	-0.066569485
64	0xbd9a431f	-0.075323336
65	0xbb550609	-0.0032504818
66	0xbd03c994	-0.03217466
67	0x3a044a52	0.0005046475
68	0x3c9f3bc0	0.01943767
69	0x3d54185f	0.051781055
70	0xbd96ed3e	-0.07369469
71	0x3d66d7d5	0.056358177
72	0x3d71a20f	0.05899244
73	0x3c569986	0.013098126
74	0xbc8d57e2	-0.01725382
75	0xbd17f288	-0.03709653
76	0x3db8b68c	0.09019193
77	0x3a78b180	0.0009486899
78	0x3e0a5b99	0.13511504
79	0x3c8965a7	0.016772104
80	0xbd746171	-0.05966324
81	0xbd78c8df	-0.06073844
82	0x3dc532d4	0.09628835
83	0x3b01bdec	0.001979704
84	0xbc1bf9eb	-0.009520034
85	0x3da452fb	0.0802364
86	0x3cc724a0	0.024309456
87	0xbc823af5	-0.015897254
88	0x3d43626f	0.047701295
89	0x3cbf81a2	0.023377243
90	0x3c8425e4	0.016131349
91	0x3cf985ca	0.030459303
92	0x3ced655f	0.028979002
93	0xbd9962b2	-0.07489528
94	0x3cf3a7d4	0.029743113
95	0xbd146e65	-0.036238093
96	0x3df07216	0.1174051
97	0x3d46fba0	0.048579812
98	0x3d8a891e	0.06764434
99	0x3dd1be72	0.10241403
100	0xbc8ebe11	-0.017424615
101	0x3cedd1c2	0.029030684
102	0x3d422761	0.047400836
103	0xbd8aff40	-0.06786966
104	0x3babfe6d	0.005248836
105	0xbd907d9e	-0.070552096
106	0xbc3bb60a	-0.011456976
107	0x3d93b562	0.072123304
108	0x3d6b97b7	0.057517733
109	0x3bdd0480	0.006744921
110	0xbc6fd7ed	-0.014638883
111	0x3c6d41f0	0.014481053
112	0x3d13f775	0.036124665
113	0xbcdb2ad4	-0.02675382
114	0x3cb12076	0.021621924
115	0xbd8e3211	-0.06943143
116	0xbb50a174	-0.0031834515
117	0x3d5457a7	0.051841404
118	0xbd4ff3ae	-0.0507695
119	0x3b33c4ae	0.0027430463
120	0xbd7b6a29	-0.06138054
121	0x3da7f252	0.08200516
122	0x3addae71	0.001691295
123	0x3bf141b5	0.007362569
124	0xbc36772c	-0.011136811
125	0xbc405108	-0.011738069
126	0xbd450fed	-0.04811089
127	0xbd55f02c	-0.052231

net.6.weight f4 [5, 128]
0	0x3daa3462	0.083107725
1	0x3e1e961a	0.15486947
2	0xbd94a78b	-0.07258519
3	0x3ea48926	0.32135886
4	0xbd00e343	-0.031466734
5	0xbe0dab77	-0.1383494
6	0x3d7758bf	0.06038737
7	0xbd46bd1a	-0.048520185
8	0x3df04cbc	0.11733386
9	0x3e0b0eed	0.13579912
10	0xbea9b8d9	-0.3314884
11	0x3d2385e3	0.039922606
12	0x3c40d44e	0.011769367
13	0xbcb8d2bd	-0.022561425
14	0x3e3c1cf0	0.18370414
15	0x3da1e70b	0.07905396
16	0xbd97def7	-0.07415574
17	0x3de6c19d	0.112673976
18	0x3da675a5	0.08127908
19	0x3db9b851	0.09068359
20	0x3dc524e9	0.09626181
21	0xba6ee9dd	-0.0009113828
22	0xbd0ac9c4	-0.033883825
23	0xbe650899	-0.22366561
24	0xbd3d079b	-0.04614983
25	0xbdbde388	-0.09271914
26	0x3db0acba	0.08626695
27	0x3cf6af9c	0.030113034
28	0xbe290463	-0.1650558
29	0x3d7075e8	0.058706194
30	0x3d554fd1	0.052078072
31	0x3bb99bc1	0.0056643193
32	0x3db0c59b	0.0863144
33	0x3d91d6a6	0.07121019
34	0x3ce827bf	0.028339265
35	0xbeab89fd	-0.33503714
36	0xbe45dffe	-0.19323727
37	0x3de1f471	0.110329516
38	0xbd5476e5	-0.0518712
39	0x3e00af1c	0.12566799
40	0xbd96d0e0	-0.073640585
41	0x3dc003bd	0.09375713
42	0xbe6f9b20	-0.23399019
43	0xbd2d3596	-0.04228743
44	0x3dc94c58	0.098290145
45	0xbdf32888	-0.11872965
46	0xbcc0847e	-0.023500677
47	0xbea6c4da	-0.3257206
48	0xbd346b52	-0.04404766
49	0xbbbf6aef	-0.005841605
50	0xbed8b8be	-0.42328447
51	0xbe016cf5	-0.1263922
52	0x3d1508b8	0.036385268
53	0xbe52a76f	-0.20571683
54	0xbb862655	-0.004093925
55	0x3dc46885	0.09590248
56	0xbb6abda0	-0.0035818592
57	0x3c85718c	0.016289495
58	0xbd999d1d	-0.0750067
59	0xbf03214b	-0.51222676
60	0x3dbf89dc	0.093524665
61	0x3de1ff0b	0.11034974
62	0x3cf929cf	0.030415444
63	0xbd318e56	-0.043348633
64	0xbeced7c6	-0.40398997
65	0x3c9b8ebd	0.018988961
66	0x3e08943f	0.13337801
67	0xbe3145f0	-0.17311835
68	0x3cfb5115	0.030678311
69	0x3d8254ba	0.063638166
70	0xbc2af810	-0.010435119
71	0x3d821d6d	0.06353269
72	0x3da8d766	0.08244209
73	0xbd5c2ec1	-0.053755525
74	0xbe9fc9cf	-0.31208655
75	0xbc239710	-0.009984747
76	0x3ded073f	0.11573648
77	0xbad413cd	-0.0016180217
78	0x3b9901eb	0.004669418
79	0xbdb9d834	-0.090744406
80	0xbe85c946	-0.26130122
81	0x3ca257d3	0.019817268
82	0x3bd833d2	0.0065979743
83	0xbe8da625	-0.2766582
84	0x3d9de3aa	0.07709439
85	0x3dab9aba	0.08379121
86	0x3d84da85	0.06486992
87	0x3ad6a20b	0.0016375197
88	0x3d07fdd9	0.033201072
89	0x3d779fe1	0.060455207
90	0xbe627d4d	-0.22118111
91	0x3dbeb846	0.09312491
92	0x3debe1ca	0.11517675
93	0x3e15a4fe	0.14613721
94	0xbe859e81	-0.2609749
95	0xbe4ac70e	-0.19802496
96	0x3e4c38a9	0.19943489
97	0xbe5e86fb	-0.21731178
98	0xbe8fcecd	-0.28087464
99	0x3d2b3555	0.04179891
100	0xbca5880b	-0.020206472
101	0x3de98d30	0.114038825
102	0x3d1832bb	0.037157755
103	0xbf24e58f	-0.6441278
104	0x3db6743a	0.08908887
105	0xbd6803ff	-0.056644436
106	0xbd1db719	-0.038504694
107	0x3d1cbb98	0.03826484
108	0xbe8eed6f	-0.27915522
109	0x3d46ae65	0.04850616
110	0x3b21aa21	0.0024668055
111	0x3dbb0ee1	0.09133697
112	0xbdc76746	-0.09736495
113	0x3c24bc06	0.010054594
114	0x3d4d351e	0.050099485
115	0xbd1b4284	-0.03790523
116	0x3ca6bb99	0.020353125
117	0x3dbc4aba	0.091939405
118	0xbe9dcdce	-0.3082108
119	0x3e5420bc	0.20715612
120	0x3c8e59bf	0.017376779
121	0x3dc7a7ad	0.097487785
122	0x3d8dca7b	0.06923386
123	0xbc90505e	-0.017616447
124	0x3e1020f3	0.14075069
125	0xbc508825	-0.012727772
126	0x3e19a11f	0.15002869
127	0xbca2d3a3	-0.019876307
128	0x3d85f906	0.06541638
129	0xbc6fa4e2	-0.0146267135
130	0xbd87d372	-0.06632127
131	0xbe0daa95	-0.13834603
132	0x3d3ba954	0.04581578
133	0x3e10c6a3	0.14138274
134	0x3d321889	0.04348043
135	0x3d9bf3d7	0.07614868
136	0x3dd3ca9b	0.10341378
137	0xbe5e35c7	-0.21700202
138	0x3cedfb92	0.029050622
139	0x3d1d29aa	0.038369812
140	0xbe7c9e26	-0.24669704
141	0xbcd4afb2	-0.025962684
142	0x3d4230c0	0.047409773
143	0x3dfd1406	0.12357335
144	0xbd29eba1	-0.04148448
145	0x3d9a9bbd	0.07549236
146	0xbf053153	-0.5202839
147	0x3da59c9d	0.08086512
148	0x3e2ad872	0.1668413
149	0x3dc78cc6	0.09743647
150	0xbd393b63	-0.04522265
151	0x3d62f12e	0.055405788
152	0xbd821f76	-0.06353657
153	0xbd97afd8	-0.074065864
154	0x3dd0ca81	0.101948746
155	0x3b9458c2	0.0045271823
156	0x3ddddb9a	0.10832901
157	0x3dbe5ed3	0.0929543
158	0xbe88f0c2	-0.26746184
159	0xbc203607	-0.009778506
160	0x3d95cb96	0.073142216
161	0x3db0007e	0.08593844
162	0x3d74ec86	0.05979588
163	0x3d26e1ed	0.040742803
164	0x3de779e4	0.11302546
165	0x3daad881	0.08342076
166	0xbcf640f4	-0.030060269
167	0x3dba475b	0.09095641
168	0x3e26bdfd	0.16283412
169	0x3d868aa9	0.06569416
170	0xbda4b324	-0.08041981
171	0xbdaa2ae0	-0.08308959
172	0xbf05e158	-0.5229697
173	0x3dc920c6	0.09820704
174	0xbea6824c	-0.32521284
175	0x3dc8f72a	0.09812768
176	0xbe639afc	-0.2222709
177	0xbe0b8b83	-0.13627438
178	0x3dc1999a	0.09453125
179	0xbe3a6bf2	-0.1820524
180	0x3e1cc6fd	0.15310283
181	0x3e8ce0e3	0.27515325
182	0xbc82a611	-0.015948327
183	0x3c14dbcb	0.009085606
184	0x3b200151	0.0024414847
185	0x3c1dff19	0.00964334
186	0xbe188ccb	-0.14897458
187	0x3d573b42	0.052546747
188	0xbeb84b4f	-0.35994956
189	0x3dfe21d9	0.124088
190	0xbe735f9f	-0.23766945
191	0xbd21ffe8	-0.03955069
192	0x3dcaa57d	0.09894846
193	0xbe5788d5	-0.21048291
194	0xbec659d2	-0.38740402
195	0xbe4dceaf	-0.20098375
196	0x3e01d746	0.12679777
197	0x3daa0a59	0.08302755
198	0xbcd2cd0f	-0.025732545
199	0xbebcdd20	-0.36887455
200	0x3d2e2cc3	0.042523157
201	0x3d919179	0.07107825
202	0x3e1b81ca	0.1518623
203	0xbd311c6e	-0.043240003
204	0x3d5ab814	0.053398207
205	0x3d885457	0.066567115
206	0x3dddd186	0.10830979
207	0x3d82c3dc	0.063850135
208	0x3e1729b6	0.14762005
209	0xbc15eb5a	-0.0091503505
210	0x3d54b9bc	0.051934943
211	0xbe55de80	-0.20885658
212	0xbd3faba2	-0.04679454
213	0x3ce53792	0.0279806
214	0x3dc119b2	0.09428729
215	0x3d161aed	0.036646772
216	0x3ca53827	0.020168377
217	0x3d1c7dd3	0.038205933
218	0xbd64aa60	-0.055826545
219	0xbe6613b0	-0.22468448
220	0x3db429b4	0.08797017
221	0xbe8b26d8	-0.27178073
222	0xbe844424	-0.25833237
223	0x3d76c1f7	0.060243573
224	0x3d14b9e9	0.03631011
225	0xbea3ca52	-0.31990296
226	0x3b21af32	0.0024671075
227	0x3e4ff052	0.20306519
228	0xbec83367	-0.39101717
229	0xbe0dfc28	-0.13865721
230	0x3d13a5b4	0.0360467
231	0x3db4423f	0.08801698
232	0x3e111125	0.14166696
233	0xbc4fe70a	-0.012689361
234	0xbc105e82	-0.008811595
235	0x3d8c0970	0.068377376
236	0x3df922f8	0.12164873
237	0xbcc3fb76	-0.023923617
238	0xbbf27dda	-0.0074002566
239	0xbf019e0f	-0.50631803
240	0x3e3d4a9a	0.1848549
241	0x3caa6a35	0.020802597
242	0x3da0d561	0.07853199
243	0xbd5ea437	-0.054355826
244	0x3c04b6c0	0.008100212
245	0x3ca4af1d	0.020103032
246	0x3d898271	0.06714333
247	0xbd6ff3cc	-0.058582112
248	0x3b44fc03	0.0030057437
249	0x3ddb8e9d	0.10720561
250	0xbdbf4183	-0.09338667
251	0x3de4e096	0.11175649
252	0xbecebdc8	-0.40379167
253	0xbd180c18	-0.03712091
254	0xbea20145	-0.31641594
255	0xbc9f264c	-0.019427441

net.6.bias f4 [5]
0	0x3de8a3c8	0.11359364
1	0xbc1a87ff	-0.009431838
2	0xbda4b76b	-0.08042797
3	0x3d5304c8	0.05151823
4	0xbddbd6ba	-0.10734315
